predictmed-ml/diseases/model_st_dict.pth (torch, 23356 bytes, 2 tensors)

clf.0.weight f4 [41, 132]
00000000: d507 25be 1df9 ccbd ba93 abbd ce21 153c
00000010: c1e9 4cbd dcb6 4dbe b77d 40bd bd72 4ebd
00000020: f2c1 063d 9be8 29bc 2e5c 023c 7c51 cc3e
00000030: f959 e33c 682d db3c 3694 83be 3ec1 ec3c
00000040: 1f1e c03c 1a27 ae3c 92b0 c8bd 51ad d0bb
00000050: 8c30 6e3d 252e a3bc 3462 6b3d bed8 63bd
00000060: 4398 acbd 423a e2bd ca1a 98bd e28c 4ebd
00000070: 3712 d4bd 8836 b83c 5934 cebd 285f 1b3f
00000080: 6f7d babd f191 53bd 4dbe 1f3f a8a8 2bbe
00000090: e7d9 5d3d bc96 98bc e8e3 babd 7c96 a2bd
000000a0: 0afd 63bd aa3a a9bd d6b7 263d 18c6 ffbd
000000b0: 1a3c c2bd 5c70 933c c687 f6bc 6075 5c3d
000000c0: 528b 8fbd 74d8 973b 60bc ae3c 0bdc 8c3d
000000d0: ee91 7f3d 7afa 4e3d ef89 aebd dfd5 98bd
000000e0: 8ebe 05be f0e9 28bd 40ab 0c3d ef64 aabd
000000f0: a818 3a3d f3b7 de3b 0be2 c9bd 05e8 153d
00000100: f649 15bd a68d 76bd fda2 04bd e8b9 9abc
00000110: 28a4 65bd 51bf 843c 305c 71bd 46ff 26bd
00000120: a15e 3a3c 2227 5bbd fb2a a439 cf35 00bd
00000130: a223 3e3d ad8b 64bd 8462 7bbd 5a3f 2bbd
00000140: 3d88 383d e535 233d 1638 b83c 287f b4bd
00000150: 8f0e 273f cd25 353f 98d1 4d3f b602 513d
00000160: b4ff 533d 658a 82bd 1899 28bd 2a0e 9fbd
00000170: f6db 50bd 73c6 37bd ab27 aabd e855 6ebc
00000180: ba88 f5bd d635 58bd 52cf 36bd 9556 21bd
00000190: e3a5 bfbc ad42 5d3c d163 423c b11c 523d
000001a0: 0055 6f3d 8fba 91bd 0921 ba3c ebd1 61bd
000001b0: 0cd9 a0bd 758c 58bd 683a 4c3d 7def 393c
000001c0: 03e8 f23c 1397 503c 820f da3b 04da 5c3d
000001d0: e7c4 17bd 15e0 263d 2eb0 673c 9f22 e0b9
000001e0: 2888 cbbd 6878 babd 18c5 ff3c 88d9 d53c
000001f0: 06c7 4bbd d70d c8bd 0ba6 5a3d fbee 6b3c
00000200: 5a70 72bd 4c82 a1bd e558 8fbd 9ef9 87bb
00000210: 8528 8fbd 861c 29be f165 2fbd a906 82bd
00000220: 138d cfbd 875c 03be afe9 31bd 3bf1 f0bb
00000230: 29ca 9bbd 1342 04bd 5c66 4c3f 78c7 6cbe
00000240: 4102 55bd 260f aebc 1327 1dbe 0841 33bb
00000250: 10a9 b2bd 546e b2bc 81c0 593d 1104 83bc
00000260: 8e17 3ebd 18a5 f8bc 898d 4f3f 329d 99bd
00000270: 118d fdbd e5ed 203f 1f91 21bd 8d2c c1bc
00000280: 8da0 75bc 5ab0 23bd 103c 29bd ca52 0fbe
00000290: 9e7c 36be ddd7 2bbd 33b1 a5bd 33be d6bd
000002a0: 76bc 00bd b7b5 53bd 20ab cfbc 5c90 f9bd
000002b0: 18f9 5dbd b96f c03c 747a 7f3b b0d1 b9bd
000002c0: 52e1 86bd 6010 b1bd be8a 093d 7f7d 85bc
000002d0: 51b2 02be 5665 cbbd 2e7f 92bd 601c f5bc
000002e0: 4cb1 103d b9aa 773c 3d53 49bd 5326 c83b
000002f0: 9db4 8bbd e6bc 96bd 25a8 22bd aac5 8cbd
00000300: d7e7 8d3c 7d25 5abd 8e92 ad3c 6d3c d83c
00000310: b356 5dbc bc94 4cbd 5d00 483d abfe b6bd
00000320: 32fb 6b3d fd53 0c3d 2474 183d 3d05 5fba
00000330: 42d5 e0bc 545c 61bd 31be 70bd 7f73 3d3f
00000340: 5378 8b3d cef1 303d e4d8 aa3c 41b8 4e3d
00000350: 2a70 413c adcf d4bc a387 5cbd d4c2 453d
00000360: 58f8 79bd db43 8cbc 5c0c 20bd 33a2 e9bc
00000370: 127f 0bbd d407 dcbd 0690 553d 061d 2f3d
00000380: bc13 3e3d f854 9ebd 5bae 98bd 4217 c63c
00000390: 4950 03be db35 f7bc 44b9 243d 9a02 2d3b
000003a0: 4636 65bc ecec aa3b 68d4 733c b281 35bd
000003b0: ced8 acbd 2394 18bd 5186 b7bc 7639 65bd
000003c0: e704 e3bc 5f30 b13c d5a5 00bc 90c6 bcbd
000003d0: 9258 f2bc ad5c b4bd 5712 483d b7e0 c6bc
000003e0: 14a6 85bc 0a00 c3bc fdd8 0abd ee33 91bc
000003f0: 1644 60bd ab65 eebd e713 babd de15 d9bc
-0.16116269 -0.10008452 -0.08377786 0.009102298 -0.050027613 -0.20089287 -0.04699489 -0.05040239
0.032899804 -0.010370399 0.007956548 0.39905918 0.027752863 0.02675505 -0.25699013 0.028900739
0.023451863 0.02125888 -0.09799303 -0.006368317 0.058151767 -0.019919464 0.0574667 -0.055626623
-0.08427479 -0.11046268 -0.074269846 -0.050427325 -0.10355037 0.02248694 -0.10068578 0.6069207
-0.09105956 -0.051652852 0.6239975 -0.16763556 0.054162886 -0.018626563 -0.09125501 -0.07938859
-0.05566124 -0.082631424 0.040702663 -0.12488955 -0.0948412 0.017997913 -0.030094039 0.053822875
-0.07008995 0.0046339575 0.021330059 0.06877907 0.06239503 0.05053184 -0.085224025 -0.07462668
-0.13060972 -0.041238725 0.034343004 -0.08320033 0.04543367 0.006796831 -0.098575674 0.036598224
-0.036447488 -0.06019368 -0.032382 -0.018887475 -0.056064755 0.016204508 -0.058925807 -0.04077079
0.0113751 -0.053504117 0.0003131254 -0.031301316 0.0464207 -0.055797268 -0.06137325 -0.041808464
0.045051802 0.03984632 0.022487681 -0.08813316 0.6525659 0.70760804 0.8039794 0.051027976
0.05175753 -0.06374053 -0.041161627 -0.077663735 -0.05099102 -0.04486699 -0.08308347 -0.014546849
-0.11988969 -0.052785717 -0.04463131 -0.03938921 -0.02339453 0.013504666 0.011864618 0.051296894
0.05843067 -0.07115661 0.02272083 -0.055131834 -0.078538984 -0.052868325 0.049860388 0.011348602
0.029651647 0.012731331 0.0066546807 0.053918853 -0.037053015 0.040741045 0.014141126 -0.00042750404
-0.09938079 -0.09104997 0.031221911 0.026104704 -0.04975035 -0.09768265 0.053381007 0.014400239
-0.059189178 -0.0788618 -0.06999377 -0.0041496297 -0.0699015 -0.16514787 -0.04282183 -0.063489266
-0.1013433 -0.12828265 -0.04343575 -0.0073529757 -0.07606918 -0.032289576 0.7984369 -0.23122966
-0.052004103 -0.021247458 -0.15346937 -0.0027351994 -0.08723652 -0.021781124 0.0531621 -0.01599315
-0.046409182 -0.03035216 0.8107534 -0.07500686 -0.12380422 0.62863 -0.03944504 -0.023580814
-0.014991892 -0.039963104 -0.041317046 -0.13996425 -0.17820975 -0.04195391 -0.08090439 -0.10485496
-0.03142973 -0.05168697 -0.025350153 -0.121857375 -0.054192632 0.023490774 0.00389829 -0.09073198
-0.06585945 -0.086457014 0.03357958 -0.016295193 -0.12763335 -0.09931438 -0.07153164 -0.029920757
0.035325333 0.015116387 -0.049151648 0.006108084 -0.068215586 -0.07360248 -0.039711136 -0.06873639
0.017322464 -0.053258408 0.021188047 0.026396 -0.01350944 -0.04994653 0.04882847 -0.08935293
0.057612605 0.034259785 0.037220135 -0.00085075555 -0.02744544 -0.05501969 -0.05877513 0.7400436
0.068100594 0.043199353 0.020855375 0.050468687 0.011806527 -0.025977934 -0.05384029 0.048281506
-0.061027855 -0.0171222 -0.039074287 -0.028519725 -0.03405673 -0.107436806 0.052139305 0.04275229
0.04640554 -0.0773105 -0.07455131 0.024181012 -0.12823595 -0.030177047 0.040215746 0.0026399256
-0.013989991 0.0052162316 0.014882185 -0.04431314 -0.0843979 -0.03725065 -0.022402914 -0.055963002
-0.027712299 0.02162951 -0.007852037 -0.0921756 -0.02958325 -0.08806739 0.048845615 -0.024277074
-0.016314544 -0.02380373 -0.033898342 -0.017724957 -0.05475243 -0.116404854 -0.09085827 -0.026499685

clf.0.bias f4 [41]
00000000: a1c6 a23b 5ec0 733e 879d 423e 7bbf 0bbb
00000010: 056f 8b3e 21bd 333e 2e12 353d 60a7 653e
00000020: a493 2ebe 50e8 30bc 5f57 a3be ffaa 8abe
00000030: 5ac2 e8bd 0eb7 0c3e 194e b23d 502c 043e
00000040: de96 263e 1f2f 523e 096f 533e 2fd8 f8bd
00000050: 94e3 5f3d 3f56 49be fe38 75be fb57 113e
00000060: c03b bcbd a62f 4cbe ff0d 44be 69f4 f03d
00000070: 4959 72bd 449a c1bd 87b0 883c 3c6c 7a3d
00000080: feb8 0a3e 34cc 9b3c 4ec6 08be 5892 d23d
00000090: 8349 92be 31dd 6bbe b81d 913e b9f1 093d
000000a0: 4708 21be
0.004967526 0.23803851 0.19005404 -0.0021323848 0.2723314 0.17552616 0.04420679 0.2242713
-0.17048508 -0.010797575 -0.31902596 -0.27083585 -0.113651946 0.13741705 0.08706302 0.12907529
0.16268489 0.20525788 0.20647825 -0.12150609 0.054660395 -0.19661807 -0.23947522 0.14193718
-0.09191084 -0.19940051 -0.19145964 0.117653675 -0.05916718 -0.09453252 0.016685737 0.061138377
0.13547131 0.01901827 -0.13356897 0.10281819 -0.2857171 -0.23033597 0.28342986 0.03367779
-0.15725814
